Open freopen.txt successfully!
I0518 10:46:20.147176  1124 net.cpp:42] Initializing net from parameters: 
name: "PNet"
input: "data"
input_dim: 1
input_dim: 3
input_dim: 12
input_dim: 12
state {
  phase: TEST
}
layer {
  name: "conv1"
  type: "Convolution"
  bottom: "data"
  top: "conv1"
  param {
    lr_mult: 1
    decay_mult: 1
  }
  param {
    lr_mult: 2
    decay_mult: 0
  }
  convolution_param {
    num_output: 10
    kernel_size: 3
    stride: 1
    weight_filler {
      type: "xavier"
    }
    bias_filler {
      type: "constant"
      value: 0
    }
  }
}
layer {
  name: "PReLU1"
  type: "PReLU"
  bottom: "conv1"
  top: "conv1"
}
layer {
  name: "pool1"
  type: "Pooling"
  bottom: "conv1"
  top: "pool1"
  pooling_param {
    pool: MAX
    kernel_size: 2
    stride: 2
  }
}
layer {
  name: "conv2"
  type: "Convolution"
  bottom: "pool1"
  top: "conv2"
  param {
    lr_mult: 1
    decay_mult: 1
  }
  param {
    lr_mult: 2
    decay_mult: 0
  }
  convolution_param {
    num_output: 16
    kernel_size: 3
    stride: 1
    weight_filler {
      type: "xavier"
    }
    bias_filler {
      type: "constant"
      value: 0
    }
  }
}
layer {
  name: "PReLU2"
  type: "PReLU"
  bottom: "conv2"
  top: "conv2"
}
layer {
  name: "conv3"
  type: "Convolution"
  bottom: "conv2"
  top: "conv3"
  param {
    lr_mult: 1
    decay_mult: 1
  }
  param {
    lr_mult: 2
    decay_mult: 0
  }
  convolution_param {
    num_output: 32
    kernel_size: 3
    stride: 1
    weight_filler {
      type: "xavier"
    }
    bias_filler {
      type: "constant"
      value: 0
    }
  }
}
layer {
  name: "PReLU3"
  type: "PReLU"
  bottom: "conv3"
  top: "conv3"
}
layer {
  name: "conv4-1"
  type: "Convolution"
  bottom: "conv3"
  top: "conv4-1"
  param {
    lr_mult: 1
    decay_mult: 1
  }
  param {
    lr_mult: 2
    decay_mult: 0
  }
  convolution_param {
    num_output: 2
    kernel_size: 1
    stride: 1
    weight_filler {
      type: "xavier"
    }
    bias_filler {
      type: "constant"
      value: 0
    }
  }
}
layer {
  name: "conv4-2"
  type: "Convolution"
  bottom: "conv3"
  top: "conv4-2"
  param {
    lr_mult: 1
    decay_mult: 1
  }
  param {
    lr_mult: 2
    decay_mult: 0
  }
  convolution_param {
    num_output: 4
    kernel_size: 1
    stride: 1
    weight_filler {
      type: "xavier"
    }
    bias_filler {
      type: "constant"
      value: 0
    }
  }
}
layer {
  name: "prob1"
  type: "Softmax"
  bottom: "conv4-1"
  top: "prob1"
}
I0518 10:46:20.147176  1124 net.cpp:382] Input 0 -> data
I0518 10:46:20.147176  1124 layer_factory.hpp:74] Creating layer conv1
I0518 10:46:20.147176  1124 net.cpp:90] Creating Layer conv1
I0518 10:46:20.147176  1124 net.cpp:422] conv1 <- data
I0518 10:46:20.147176  1124 net.cpp:380] conv1 -> conv1
I0518 10:46:20.147176  1124 net.cpp:120] Setting up conv1
I0518 10:46:20.256376  1124 net.cpp:127] Top shape: 1 10 10 10 (1000)
I0518 10:46:20.256376  1124 layer_factory.hpp:74] Creating layer PReLU1
I0518 10:46:20.256376  1124 net.cpp:90] Creating Layer PReLU1
I0518 10:46:20.256376  1124 net.cpp:422] PReLU1 <- conv1
I0518 10:46:20.256376  1124 net.cpp:369] PReLU1 -> conv1 (in-place)
I0518 10:46:20.256376  1124 net.cpp:120] Setting up PReLU1
I0518 10:46:20.256376  1124 net.cpp:127] Top shape: 1 10 10 10 (1000)
I0518 10:46:20.256376  1124 layer_factory.hpp:74] Creating layer pool1
I0518 10:46:20.256376  1124 net.cpp:90] Creating Layer pool1
I0518 10:46:20.256376  1124 net.cpp:422] pool1 <- conv1
I0518 10:46:20.256376  1124 net.cpp:380] pool1 -> pool1
I0518 10:46:20.256376  1124 net.cpp:120] Setting up pool1
I0518 10:46:20.256376  1124 net.cpp:127] Top shape: 1 10 5 5 (250)
I0518 10:46:20.256376  1124 layer_factory.hpp:74] Creating layer conv2
I0518 10:46:20.256376  1124 net.cpp:90] Creating Layer conv2
I0518 10:46:20.256376  1124 net.cpp:422] conv2 <- pool1
I0518 10:46:20.256376  1124 net.cpp:380] conv2 -> conv2
I0518 10:46:20.256376  1124 net.cpp:120] Setting up conv2
I0518 10:46:20.256376  1124 net.cpp:127] Top shape: 1 16 3 3 (144)
I0518 10:46:20.256376  1124 layer_factory.hpp:74] Creating layer PReLU2
I0518 10:46:20.256376  1124 net.cpp:90] Creating Layer PReLU2
I0518 10:46:20.256376  1124 net.cpp:422] PReLU2 <- conv2
I0518 10:46:20.256376  1124 net.cpp:369] PReLU2 -> conv2 (in-place)
I0518 10:46:20.256376  1124 net.cpp:120] Setting up PReLU2
I0518 10:46:20.256376  1124 net.cpp:127] Top shape: 1 16 3 3 (144)
I0518 10:46:20.256376  1124 layer_factory.hpp:74] Creating layer conv3
I0518 10:46:20.256376  1124 net.cpp:90] Creating Layer conv3
I0518 10:46:20.256376  1124 net.cpp:422] conv3 <- conv2
I0518 10:46:20.256376  1124 net.cpp:380] conv3 -> conv3
I0518 10:46:20.256376  1124 net.cpp:120] Setting up conv3
I0518 10:46:20.256376  1124 net.cpp:127] Top shape: 1 32 1 1 (32)
I0518 10:46:20.256376  1124 layer_factory.hpp:74] Creating layer PReLU3
I0518 10:46:20.256376  1124 net.cpp:90] Creating Layer PReLU3
I0518 10:46:20.256376  1124 net.cpp:422] PReLU3 <- conv3
I0518 10:46:20.256376  1124 net.cpp:369] PReLU3 -> conv3 (in-place)
I0518 10:46:20.256376  1124 net.cpp:120] Setting up PReLU3
I0518 10:46:20.256376  1124 net.cpp:127] Top shape: 1 32 1 1 (32)
I0518 10:46:20.256376  1124 layer_factory.hpp:74] Creating layer conv3_PReLU3_0_split
I0518 10:46:20.256376  1124 net.cpp:90] Creating Layer conv3_PReLU3_0_split
I0518 10:46:20.256376  1124 net.cpp:422] conv3_PReLU3_0_split <- conv3
I0518 10:46:20.256376  1124 net.cpp:380] conv3_PReLU3_0_split -> conv3_PReLU3_0_split_0
I0518 10:46:20.256376  1124 net.cpp:380] conv3_PReLU3_0_split -> conv3_PReLU3_0_split_1
I0518 10:46:20.256376  1124 net.cpp:120] Setting up conv3_PReLU3_0_split
I0518 10:46:20.256376  1124 net.cpp:127] Top shape: 1 32 1 1 (32)
I0518 10:46:20.256376  1124 net.cpp:127] Top shape: 1 32 1 1 (32)
I0518 10:46:20.256376  1124 layer_factory.hpp:74] Creating layer conv4-1
I0518 10:46:20.256376  1124 net.cpp:90] Creating Layer conv4-1
I0518 10:46:20.256376  1124 net.cpp:422] conv4-1 <- conv3_PReLU3_0_split_0
I0518 10:46:20.256376  1124 net.cpp:380] conv4-1 -> conv4-1
I0518 10:46:20.256376  1124 net.cpp:120] Setting up conv4-1
I0518 10:46:20.256376  1124 net.cpp:127] Top shape: 1 2 1 1 (2)
I0518 10:46:20.256376  1124 layer_factory.hpp:74] Creating layer conv4-2
I0518 10:46:20.256376  1124 net.cpp:90] Creating Layer conv4-2
I0518 10:46:20.256376  1124 net.cpp:422] conv4-2 <- conv3_PReLU3_0_split_1
I0518 10:46:20.256376  1124 net.cpp:380] conv4-2 -> conv4-2
I0518 10:46:20.256376  1124 net.cpp:120] Setting up conv4-2
I0518 10:46:20.256376  1124 net.cpp:127] Top shape: 1 4 1 1 (4)
I0518 10:46:20.256376  1124 layer_factory.hpp:74] Creating layer prob1
I0518 10:46:20.256376  1124 net.cpp:90] Creating Layer prob1
I0518 10:46:20.256376  1124 net.cpp:422] prob1 <- conv4-1
I0518 10:46:20.256376  1124 net.cpp:380] prob1 -> prob1
I0518 10:46:20.256376  1124 net.cpp:120] Setting up prob1
I0518 10:46:20.256376  1124 net.cpp:127] Top shape: 1 2 1 1 (2)
I0518 10:46:20.256376  1124 net.cpp:194] prob1 does not need backward computation.
I0518 10:46:20.256376  1124 net.cpp:194] conv4-2 does not need backward computation.
I0518 10:46:20.256376  1124 net.cpp:194] conv4-1 does not need backward computation.
I0518 10:46:20.256376  1124 net.cpp:194] conv3_PReLU3_0_split does not need backward computation.
I0518 10:46:20.256376  1124 net.cpp:194] PReLU3 does not need backward computation.
…
I0518 10:46:20.256376  1124 net.cpp:235] This network produces output conv4-2
I0518 10:46:20.256376  1124 net.cpp:235] This network produces output prob1
I0518 10:46:20.256376  1124 net.cpp:494] Collecting Learning Rate and Weight Decay.
I0518 10:46:20.256376  1124 net.cpp:247] Network initialization done.
I0518 10:46:20.256376  1124 net.cpp:248] Memory required for data: 10696
I0518 10:46:20.287575  1124 net.cpp:42] Initializing net from parameters: 
name: "RNet"
input: "data"
input_dim: 1
input_dim: 3
input_dim: 24
input_dim: 24
state {
  phase: TEST
}
layer {
  name: "conv1"
  type: "Convolution"
  bottom: "data"
  top: "conv1"
  param {
    lr_mult: 0
    decay_mult: 0
  }
  param {
    lr_mult: 0
    decay_mult: 0
  }
  convolution_param {
    num_output: 28
    kernel_size: 3
    stride: 1
    weight_filler {
      type: "xavier"
    }
    bias_filler {
      type: "constant"
      value: 0
    }
  }
}
layer {
  name: "prelu1"
  type: "PReLU"
  bottom: "conv1"
  top: "conv1"
  propagate_down: true
}
layer {
  name: "pool1"
  type: "Pooling"
  bottom: "conv1"
  top: "pool1"
  pooling_param {
    pool: MAX
    kernel_size: 3
    stride: 2
  }
}
layer {
  name: "conv2"
  type: "Convolution"
  bottom: "pool1"
  top: "conv2"
  param {
    lr_mult: 0
    decay_mult: 0
  }
  param {
    lr_mult: 0
    decay_mult: 0
  }
  convolution_param {
    num_output: 48
    kernel_size: 3
    stride: 1
    weight_filler {
      type: "xavier"
    }
    bias_filler {
      type: "constant"
      value: 0
    }
  }
}
layer {
  name: "prelu2"
  type: "PReLU"
  bottom: "conv2"
  top: "conv2"
  propagate_down: true
}
layer {
  name: "pool2"
  type: "Pooling"
  bottom: "conv2"
  top: "pool2"
  pooling_param {
    pool: MAX
    kernel_size: 3
    stride: 2
  }
}
layer {
  name: "conv3"
  type: "Convolution"
  bottom: "pool2"
  top: "conv3"
  param {
    lr_mult: 0
    decay_mult: 0
  }
  param {
    lr_mult: 0
    decay_mult: 0
  }
  convolution_param {
    num_output: 64
    kernel_size: 2
    stride: 1
    weight_filler {
      type: "xavier"
    }
    bias_filler {
      type: "constant"
      value: 0
    }
  }
}
layer {
  name: "prelu3"
  type: "PReLU"
  bottom: "conv3"
  top: "conv3"
  propagate_down: true
}
layer {
  name: "conv4"
  type: "InnerProduct"
  bottom: "conv3"
  top: "conv4"
  param {
    lr_mult: 0
    decay_mult: 0
  }
  param {
    lr_mult: 0
    decay_mult: 0
  }
  inner_product_param {
    num_output: 128
    weight_filler {
      type: "xavier"
    }
    bias_filler {
      type: "constant"
      value: 0
    }
  }
}
layer {
  name: "prelu4"
  type: "PReLU"
  bottom: "conv4"
  top: "conv4"
}
layer {
  name: "conv5-1"
  type: "InnerProduct"
  bottom: "conv4"
  top: "conv5-1"
  param {
    lr_mult: 0
    decay_mult: 0
  }
  param {
    lr_mult: 0
    decay_mult: 0
  }
  inner_product_param {
    num_output: 2
    weight_filler {
      type: "xavier"
    }
    bias_filler {
      type: "constant"
      value: 0
    }
  }
}
layer {
  name: "conv5-2"
  type: "InnerProduct"
  bottom: "conv4"
  top: "conv5-2"
  param {
    lr_mult: 1
    decay_mult: 1
  }
  param {
    lr_mult: 2
    decay_mult: 1
  }
  inner_product_param {
    num_output: 4
    weight_filler {
      type: "xavier"
    }
    bias_filler {
      type: "constant"
      value: 0
    }
  }
}
layer {
  name: "prob1"
  type: "Softmax"
  bottom: "conv5-1"
  top: "prob1"
}
I0518 10:46:20.287575  1124 net.cpp:382] Input 0 -> data
I0518 10:46:20.287575  1124 layer_factory.hpp:74] Creating layer conv1
I0518 10:46:20.287575  1124 net.cpp:90] Creating Layer conv1
I0518 10:46:20.287575  1124 net.cpp:422] conv1 <- data
I0518 10:46:20.287575  1124 net.cpp:380] conv1 -> conv1
I0518 10:46:20.287575  1124 net.cpp:120] Setting up conv1
I0518 10:46:20.287575  1124 net.cpp:127] Top shape: 1 28 22 22 (13552)
I0518 10:46:20.287575  1124 layer_factory.hpp:74] Creating layer prelu1
I0518 10:46:20.287575  1124 net.cpp:90] Creating Layer prelu1
I0518 10:46:20.287575  1124 net.cpp:422] prelu1 <- conv1
I0518 10:46:20.287575  1124 net.cpp:369] prelu1 -> conv1 (in-place)
I0518 10:46:20.287575  1124 net.cpp:120] Setting up prelu1
I0518 10:46:20.287575  1124 net.cpp:127] Top shape: 1 28 22 22 (13552)
I0518 10:46:20.287575  1124 layer_factory.hpp:74] Creating layer pool1
I0518 10:46:20.287575  1124 net.cpp:90] Creating Layer pool1
I0518 10:46:20.287575  1124 net.cpp:422] pool1 <- conv1
I0518 10:46:20.287575  1124 net.cpp:380] pool1 -> pool1
I0518 10:46:20.287575  1124 net.cpp:120] Setting up pool1
I0518 10:46:20.287575  1124 net.cpp:127] Top shape: 1 28 11 11 (3388)
I0518 10:46:20.287575  1124 layer_factory.hpp:74] Creating layer conv2
I0518 10:46:20.287575  1124 net.cpp:90] Creating Layer conv2
I0518 10:46:20.287575  1124 net.cpp:422] conv2 <- pool1
I0518 10:46:20.287575  1124 net.cpp:380] conv2 -> conv2
I0518 10:46:20.287575  1124 net.cpp:120] Setting up conv2
I0518 10:46:20.287575  1124 net.cpp:127] Top shape: 1 48 9 9 (3888)
I0518 10:46:20.287575  1124 layer_factory.hpp:74] Creating layer prelu2
I0518 10:46:20.287575  1124 net.cpp:90] Creating Layer prelu2
I0518 10:46:20.287575  1124 net.cpp:422] prelu2 <- conv2
I0518 10:46:20.287575  1124 net.cpp:369] prelu2 -> conv2 (in-place)
I0518 10:46:20.287575  1124 net.cpp:120] Setting up prelu2
I0518 10:46:20.287575  1124 net.cpp:127] Top shape: 1 48 9 9 (3888)
I0518 10:46:20.287575  1124 layer_factory.hpp:74] Creating layer pool2
I0518 10:46:20.287575  1124 net.cpp:90] Creating Layer pool2
I0518 10:46:20.287575  1124 net.cpp:422] pool2 <- conv2
I0518 10:46:20.287575  1124 net.cpp:380] pool2 -> pool2
I0518 10:46:20.287575  1124 net.cpp:120] Setting up pool2
I0518 10:46:20.287575  1124 net.cpp:127] Top shape: 1 48 4 4 (768)
I0518 10:46:20.287575  1124 layer_factory.hpp:74] Creating layer conv3
I0518 10:46:20.287575  1124 net.cpp:90] Creating Layer conv3
I0518 10:46:20.287575  1124 net.cpp:422] conv3 <- pool2
I0518 10:46:20.287575  1124 net.cpp:380] conv3 -> conv3
I0518 10:46:20.287575  1124 net.cpp:120] Setting up conv3
I0518 10:46:20.287575  1124 net.cpp:127] Top shape: 1 64 3 3 (576)
I0518 10:46:20.287575  1124 layer_factory.hpp:74] Creating layer prelu3
I0518 10:46:20.287575  1124 net.cpp:90] Creating Layer prelu3
I0518 10:46:20.287575  1124 net.cpp:422] prelu3 <- conv3
I0518 10:46:20.287575  1124 net.cpp:369] prelu3 -> conv3 (in-place)
I0518 10:46:20.287575  1124 net.cpp:120] Setting up prelu3
I0518 10:46:20.287575  1124 net.cpp:127] Top shape: 1 64 3 3 (576)
I0518 10:46:20.287575  1124 layer_factory.hpp:74] Creating layer conv4
I0518 10:46:20.287575  1124 net.cpp:90] Creating Layer conv4
I0518 10:46:20.287575  1124 net.cpp:422] conv4 <- conv3
I0518 10:46:20.287575  1124 net.cpp:380] conv4 -> conv4
I0518 10:46:20.287575  1124 net.cpp:120] Setting up conv4
I0518 10:46:20.303175  1124 net.cpp:127] Top shape: 1 128 (128)
I0518 10:46:20.303175  1124 layer_factory.hpp:74] Creating layer prelu4
I0518 10:46:20.303175  1124 net.cpp:90] Creating Layer prelu4
I0518 10:46:20.303175  1124 net.cpp:422] prelu4 <- conv4
I0518 10:46:20.303175  1124 net.cpp:369] prelu4 -> conv4 (in-place)
I0518 10:46:20.303175  1124 net.cpp:120] Setting up prelu4
I0518 10:46:20.303175  1124 net.cpp:127] Top shape: 1 128 (128)
I0518 10:46:20.303175  1124 layer_factory.hpp:74] Creating layer conv4_prelu4_0_split
I0518 10:46:20.303175  1124 net.cpp:90] Creating Layer conv4_prelu4_0_split
I0518 10:46:20.303175  1124 net.cpp:422] conv4_prelu4_0_split <- conv4
I0518 10:46:20.303175  1124 net.cpp:380] conv4_prelu4_0_split -> conv4_prelu4_0_split_0
I0518 10:46:20.303175  1124 net.cpp:380] conv4_prelu4_0_split -> conv4_prelu4_0_split_1
I0518 10:46:20.303175  1124 net.cpp:120] Setting up conv4_prelu4_0_split
I0518 10:46:20.303175  1124 net.cpp:127] Top shape: 1 128 (128)
I0518 10:46:20.303175  1124 net.cpp:127] Top shape: 1 128 (128)
I0518 10:46:20.303175  1124 layer_factory.hpp:74] Creating layer conv5-1
I0518 10:46:20.303175  1124 net.cpp:90] Creating Layer conv5-1
I0518 10:46:20.303175  1124 net.cpp:422] conv5-1 <- conv4_prelu4_0_split_0
I0518 10:46:20.303175  1124 net.cpp:380] conv5-1 -> conv5-1
I0518 10:46:20.303175  1124 net.cpp:120] Setting up conv5-1
I0518 10:46:20.303175  1124 net.cpp:127] Top shape: 1 2 (2)
I0518 10:46:20.303175  1124 layer_factory.hpp:74] Creating layer conv5-2
I0518 10:46:20.303175  1124 net.cpp:90] Creating Layer conv5-2
I0518 10:46:20.303175  1124 net.cpp:422] conv5-2 <- conv4_prelu4_0_split_1
I0518 10:46:20.303175  1124 net.cpp:380] conv5-2 -> conv5-2
I0518 10:46:20.303175  1124 net.cpp:120] Setting up conv5-2
I0518 10:46:20.303175  1124 net.cpp:127] Top shape: 1 4 (4)
I0518 10:46:20.303175  1124 layer_factory.hpp:74] Creating layer prob1
I0518 10:46:20.303175  1124 net.cpp:90] Creating Layer prob1
I0518 10:46:20.303175  1124 net.cpp:422] prob1 <- conv5-1
I0518 10:46:20.303175  1124 net.cpp:380] prob1 -> prob1
I0518 10:46:20.303175  1124 net.cpp:120] Setting up prob1
I0518 10:46:20.303175  1124 net.cpp:127] Top shape: 1 2 (2)
I0518 10:46:20.303175  1124 net.cpp:194] prob1 does not need backward computation.
I0518 10:46:20.303175  1124 net.cpp:194] conv5-2 does not need backward computation.
I0518 10:46:20.303175  1124 net.cpp:194] conv5-1 does not need backward computation.
I0518 10:46:20.303175  1124 net.cpp:194] conv4_prelu4_0_split does not need backward computation.
I0518 10:46:20.303175  1124 net.cpp:194] prelu4 does not need backward computation.
…
I0518 10:46:20.303175  1124 net.cpp:235] This network produces output conv5-2
I0518 10:46:20.303175  1124 net.cpp:235] This network produces output prob1
I0518 10:46:20.303175  1124 net.cpp:494] Collecting Learning Rate and Weight Decay.
I0518 10:46:20.303175  1124 net.cpp:247] Network initialization done.
I0518 10:46:20.303175  1124 net.cpp:248] Memory required for data: 162832
I0518 10:46:20.303175  1124 net.cpp:42] Initializing net from parameters: 
name: "ONet"
input: "data"
input_dim: 1
input_dim: 3
input_dim: 48
input_dim: 48
state {
  phase: TEST
}
layer {
  name: "conv1"
  type: "Convolution"
  bottom: "data"
  top: "conv1"
  param {
    lr_mult: 1
    decay_mult: 1
  }
  param {
    lr_mult: 2
    decay_mult: 1
  }
  convolution_param {
    num_output: 32
    kernel_size: 3
    stride: 1
    weight_filler {
      type: "xavier"
    }
    bias_filler {
      type: "constant"
      value: 0
    }
  }
}
layer {
  name: "prelu1"
  type: "PReLU"
  bottom: "conv1"
  top: "conv1"
}
layer {
  name: "pool1"
  type: "Pooling"
  bottom: "conv1"
  top: "pool1"
  pooling_param {
    pool: MAX
    kernel_size: 3
    stride: 2
  }
}
layer {
  name: "conv2"
  type: "Convolution"
  bottom: "pool1"
  top: "conv2"
  param {
    lr_mult: 1
    decay_mult: 1
  }
  param {
    lr_mult: 2
    decay_mult: 1
  }
  convolution_param {
    num_output: 64
    kernel_size: 3
    stride: 1
    weight_filler {
      type: "xavier"
    }
    bias_filler {
      type: "constant"
      value: 0
    }
  }
}
layer {
  name: "prelu2"
  type: "PReLU"
  bottom: "conv2"
  top: "conv2"
}
layer {
  name: "pool2"
  type: "Pooling"
  bottom: "conv2"
  top: "pool2"
  pooling_param {
    pool: MAX
    kernel_size: 3
    stride: 2
  }
}
layer {
  name: "conv3"
  type: "Convolution"
  bottom: "pool2"
  top: "conv3"
  param {
    lr_mult: 1
    decay_mult: 1
  }
  param {
    lr_mult: 2
    decay_mult: 1
  }
  convolution_param {
    num_output: 64
    kernel_size: 3
    weight_filler {
      type: "xavier"
    }
    bias_filler {
      type: "constant"
      value: 0
    }
  }
}
layer {
  name: "prelu3"
  type: "PReLU"
  bottom: "conv3"
  top: "conv3"
}
layer {
  name: "pool3"
  type: "Pooling"
  bottom: "conv3"
  top: "pool3"
  pooling_param {
    pool: MAX
    kernel_size: 2
    stride: 2
  }
}
layer {
  name: "conv4"
  type: "Convolution"
  bottom: "pool3"
  top: "conv4"
  param {
    lr_mult: 1
    decay_mult: 1
  }
  param {
    lr_mult: 2
    decay_mult: 1
  }
  convolution_param {
    num_output: 128
    kernel_size: 2
    weight_filler {
      type: "xavier"
    }
    bias_filler {
      type: "constant"
      value: 0
    }
  }
}
layer {
  name: "prelu4"
  type: "PReLU"
  bottom: "conv4"
  top: "conv4"
}
layer {
  name: "conv5"
  type: "InnerProduct"
  bottom: "conv4"
  top: "conv5"
  param {
    lr_mult: 1
    decay_mult: 1
  }
  param {
    lr_mult: 2
    decay_mult: 1
  }
  inner_product_param {
    num_output: 256
    weight_filler {
      type: "xavier"
    }
    bias_filler {
      type: "constant"
      value: 0
    }
  }
}
layer {
  name: "drop5"
  type: "Dropout"
  bottom: "conv5"
  top: "conv5"
  dropout_param {
    dropout_ratio: 0.25
  }
}
layer {
  name: "prelu5"
  type: "PReLU"
  bottom: "conv5"
  top: "conv5"
}
layer {
  name: "conv6-1"
  type: "InnerProduct"
  bottom: "conv5"
  top: "conv6-1"
  param {
    lr_mult: 1
    decay_mult: 1
  }
  param {
    lr_mult: 2
    decay_mult: 1
  }
  inner_product_param {
    num_output: 2
    weight_filler {
      type: "xavier"
    }
    bias_filler {
      type: "constant"
      value: 0
    }
  }
}
layer {
  name: "conv6-2"
  type: "InnerProduct"
  bottom: "conv5"
  top: "conv6-2"
  param {
    lr_mult: 1
    decay_mult: 1
  }
  param {
    lr_mult: 2
    decay_mult: 1
  }
  inner_product_param {
    num_output: 4
    weight_filler {
      type: "xavier"
    }
    bias_filler {
      type: "constant"
      value: 0
    }
  }
}
layer {
  name: "conv6-3"
  type: "InnerProduct"
  bottom: "conv5"
  top: "conv6-3"
  param {
    lr_mult: 1
    decay_mult: 1
  }
  param {
    lr_mult: 2
    decay_mult: 1
  }
  inner_product_param {
    num_output: 10
    weight_filler {
      type: "xavier"
    }
    bias_filler {
      type: "constant"
      value: 0
    }
  }
}
layer {
  name: "prob1"
  type: "Softmax"
  bottom: "conv6-1"
  top: "prob1"
}
I0518 10:46:20.303175  1124 net.cpp:382] Input 0 -> data
I0518 10:46:20.303175  1124 layer_factory.hpp:74] Creating layer conv1
I0518 10:46:20.303175  1124 net.cpp:90] Creating Layer conv1
I0518 10:46:20.303175  1124 net.cpp:422] conv1 <- data
I0518 10:46:20.303175  1124 net.cpp:380] conv1 -> conv1
I0518 10:46:20.303175  1124 net.cpp:120] Setting up conv1
I0518 10:46:20.303175  1124 net.cpp:127] Top shape: 1 32 46 46 (67712)
I0518 10:46:20.303175  1124 layer_factory.hpp:74] Creating layer prelu1
I0518 10:46:20.303175  1124 net.cpp:90] Creating Layer prelu1
I0518 10:46:20.303175  1124 net.cpp:422] prelu1 <- conv1
I0518 10:46:20.303175  1124 net.cpp:369] prelu1 -> conv1 (in-place)
I0518 10:46:20.303175  1124 net.cpp:120] Setting up prelu1
I0518 10:46:20.303175  1124 net.cpp:127] Top shape: 1 32 46 46 (67712)
I0518 10:46:20.303175  1124 layer_factory.hpp:74] Creating layer pool1
I0518 10:46:20.303175  1124 net.cpp:90] Creating Layer pool1
I0518 10:46:20.303175  1124 net.cpp:422] pool1 <- conv1
I0518 10:46:20.303175  1124 net.cpp:380] pool1 -> pool1
I0518 10:46:20.303175  1124 net.cpp:120] Setting up pool1
I0518 10:46:20.303175  1124 net.cpp:127] Top shape: 1 32 23 23 (16928)
I0518 10:46:20.303175  1124 layer_factory.hpp:74] Creating layer conv2
I0518 10:46:20.303175  1124 net.cpp:90] Creating Layer conv2
I0518 10:46:20.303175  1124 net.cpp:422] conv2 <- pool1
I0518 10:46:20.303175  1124 net.cpp:380] conv2 -> conv2
I0518 10:46:20.303175  1124 net.cpp:120] Setting up conv2
I0518 10:46:20.303175  1124 net.cpp:127] Top shape: 1 64 21 21 (28224)
I0518 10:46:20.303175  1124 layer_factory.hpp:74] Creating layer prelu2
I0518 10:46:20.303175  1124 net.cpp:90] Creating Layer prelu2
I0518 10:46:20.303175  1124 net.cpp:422] prelu2 <- conv2
I0518 10:46:20.303175  1124 net.cpp:369] prelu2 -> conv2 (in-place)
I0518 10:46:20.303175  1124 net.cpp:120] Setting up prelu2
I0518 10:46:20.303175  1124 net.cpp:127] Top shape: 1 64 21 21 (28224)
I0518 10:46:20.303175  1124 layer_factory.hpp:74] Creating layer pool2
I0518 10:46:20.303175  1124 net.cpp:90] Creating Layer pool2
I0518 10:46:20.303175  1124 net.cpp:422] pool2 <- conv2
I0518 10:46:20.303175  1124 net.cpp:380] pool2 -> pool2
I0518 10:46:20.303175  1124 net.cpp:120] Setting up pool2
I0518 10:46:20.303175  1124 net.cpp:127] Top shape: 1 64 10 10 (6400)
I0518 10:46:20.303175  1124 layer_factory.hpp:74] Creating layer conv3
I0518 10:46:20.303175  1124 net.cpp:90] Creating Layer conv3
I0518 10:46:20.303175  1124 net.cpp:422] conv3 <- pool2
I0518 10:46:20.303175  1124 net.cpp:380] conv3 -> conv3
I0518 10:46:20.303175  1124 net.cpp:120] Setting up conv3
I0518 10:46:20.303175  1124 net.cpp:127] Top shape: 1 64 8 8 (4096)
I0518 10:46:20.303175  1124 layer_factory.hpp:74] Creating layer prelu3
I0518 10:46:20.303175  1124 net.cpp:90] Creating Layer prelu3
I0518 10:46:20.303175  1124 net.cpp:422] prelu3 <- conv3
I0518 10:46:20.303175  1124 net.cpp:369] prelu3 -> conv3 (in-place)
I0518 10:46:20.303175  1124 net.cpp:120] Setting up prelu3
I0518 10:46:20.303175  1124 net.cpp:127] Top shape: 1 64 8 8 (4096)
I0518 10:46:20.303175  1124 layer_factory.hpp:74] Creating layer pool3
I0518 10:46:20.303175  1124 net.cpp:90] Creating Layer pool3
I0518 10:46:20.303175  1124 net.cpp:422] pool3 <- conv3
I0518 10:46:20.303175  1124 net.cpp:380] pool3 -> pool3
I0518 10:46:20.303175  1124 net.cpp:120] Setting up pool3
I0518 10:46:20.318775  1124 net.cpp:127] Top shape: 1 64 4 4 (1024)
I0518 10:46:20.318775  1124 layer_factory.hpp:74] Creating layer conv4
I0518 10:46:20.318775  1124 net.cpp:90] Creating Layer conv4
I0518 10:46:20.318775  1124 net.cpp:422] conv4 <- pool3
I0518 10:46:20.318775  1124 net.cpp:380] conv4 -> conv4
I0518 10:46:20.318775  1124 net.cpp:120] Setting up conv4
I0518 10:46:20.318775  1124 net.cpp:127] Top shape: 1 128 3 3 (1152)
I0518 10:46:20.318775  1124 layer_factory.hpp:74] Creating layer prelu4
I0518 10:46:20.318775  1124 net.cpp:90] Creating Layer prelu4
I0518 10:46:20.318775  1124 net.cpp:422] prelu4 <- conv4
I0518 10:46:20.318775  1124 net.cpp:369] prelu4 -> conv4 (in-place)
I0518 10:46:20.318775  1124 net.cpp:120] Setting up prelu4
I0518 10:46:20.318775  1124 net.cpp:127] Top shape: 1 128 3 3 (1152)
I0518 10:46:20.318775  1124 layer_factory.hpp:74] Creating layer conv5
I0518 10:46:20.318775  1124 net.cpp:90] Creating Layer conv5
I0518 10:46:20.318775  1124 net.cpp:422] conv5 <- conv4
I0518 10:46:20.318775  1124 net.cpp:380] conv5 -> conv5
I0518 10:46:20.318775  1124 net.cpp:120] Setting up conv5
I0518 10:46:20.318775  1124 net.cpp:127] Top shape: 1 256 (256)
I0518 10:46:20.318775  1124 layer_factory.hpp:74] Creating layer drop5
I0518 10:46:20.318775  1124 net.cpp:90] Creating Layer drop5
I0518 10:46:20.318775  1124 net.cpp:422] drop5 <- conv5
I0518 10:46:20.318775  1124 net.cpp:369] drop5 -> conv5 (in-place)
I0518 10:46:20.318775  1124 net.cpp:120] Setting up drop5
I0518 10:46:20.318775  1124 net.cpp:127] Top shape: 1 256 (256)
I0518 10:46:20.318775  1124 layer_factory.hpp:74] Creating layer prelu5
I0518 10:46:20.318775  1124 net.cpp:90] Creating Layer prelu5
I0518 10:46:20.318775  1124 net.cpp:422] prelu5 <- conv5
I0518 10:46:20.318775  1124 net.cpp:369] prelu5 -> conv5 (in-place)
I0518 10:46:20.318775  1124 net.cpp:120] Setting up prelu5
I0518 10:46:20.318775  1124 net.cpp:127] Top shape: 1 256 (256)
I0518 10:46:20.318775  1124 layer_factory.hpp:74] Creating layer conv5_prelu5_0_split
I0518 10:46:20.318775  1124 net.cpp:90] Creating Layer conv5_prelu5_0_split
I0518 10:46:20.318775  1124 net.cpp:422] conv5_prelu5_0_split <- conv5
I0518 10:46:20.318775  1124 net.cpp:380] conv5_prelu5_0_split -> conv5_prelu5_0_split_0
I0518 10:46:20.318775  1124 net.cpp:380] conv5_prelu5_0_split -> conv5_prelu5_0_split_1
I0518 10:46:20.318775  1124 net.cpp:380] conv5_prelu5_0_split -> conv5_prelu5_0_split_2
I0518 10:46:20.318775  1124 net.cpp:120] Setting up conv5_prelu5_0_split
I0518 10:46:20.318775  1124 net.cpp:127] Top shape: 1 256 (256)
I0518 10:46:20.318775  1124 net.cpp:127] Top shape: 1 256 (256)
I0518 10:46:20.318775  1124 net.cpp:127] Top shape: 1 256 (256)
I0518 10:46:20.318775  1124 layer_factory.hpp:74] Creating layer conv6-1
I0518 10:46:20.318775  1124 net.cpp:90] Creating Layer conv6-1
I0518 10:46:20.318775  1124 net.cpp:422] conv6-1 <- conv5_prelu5_0_split_0
I0518 10:46:20.318775  1124 net.cpp:380] conv6-1 -> conv6-1
I0518 10:46:20.318775  1124 net.cpp:120] Setting up conv6-1
I0518 10:46:20.318775  1124 net.cpp:127] Top shape: 1 2 (2)
I0518 10:46:20.318775  1124 layer_factory.hpp:74] Creating layer conv6-2
I0518 10:46:20.318775  1124 net.cpp:90] Creating Layer conv6-2
I0518 10:46:20.318775  1124 net.cpp:422] conv6-2 <- conv5_prelu5_0_split_1
I0518 10:46:20.318775  1124 net.cpp:380] conv6-2 -> conv6-2
I0518 10:46:20.318775  1124 net.cpp:120] Setting up conv6-2
I0518 10:46:20.318775  1124 net.cpp:127] Top shape: 1 4 (4)
I0518 10:46:20.318775  1124 layer_factory.hpp:74] Creating layer conv6-3
I0518 10:46:20.318775  1124 net.cpp:90] Creating Layer conv6-3
I0518 10:46:20.318775  1124 net.cpp:422] conv6-3 <- conv5_prelu5_0_split_2
I0518 10:46:20.318775  1124 net.cpp:380] conv6-3 -> conv6-3
I0518 10:46:20.318775  1124 net.cpp:120] Setting up conv6-3
I0518 10:46:20.318775  1124 net.cpp:127] Top shape: 1 10 (10)
I0518 10:46:20.318775  1124 layer_factory.hpp:74] Creating layer prob1
I0518 10:46:20.318775  1124 net.cpp:90] Creating Layer prob1
I0518 10:46:20.318775  1124 net.cpp:422] prob1 <- conv6-1
I0518 10:46:20.318775  1124 net.cpp:380] prob1 -> prob1
I0518 10:46:20.318775  1124 net.cpp:120] Setting up prob1
I0518 10:46:20.318775  1124 net.cpp:127] Top shape: 1 2 (2)
I0518 10:46:20.318775  1124 net.cpp:194] prob1 does not need backward computation.
I0518 10:46:20.318775  1124 net.cpp:194] conv6-3 does not need backward computation.
I0518 10:46:20.318775  1124 net.cpp:194] conv6-2 does not need backward computation.
I0518 10:46:20.318775  1124 net.cpp:194] conv6-1 does not need backward computation.
I0518 10:46:20.318775  1124 net.cpp:194] conv5_prelu5_0_split does not need backward computation.
…
I0518 11:48:13.858016  1124 net.cpp:235] This network produces output conv5-2
I0518 11:48:13.858016  1124 net.cpp:235] This network produces output prob1
I0518 11:48:13.858016  1124 net.cpp:494] Collecting Learning Rate and Weight Decay.
I0518 11:48:13.873616  1124 net.cpp:247] Network initialization done.
I0518 11:48:13.873616  1124 net.cpp:248] Memory required for data: 162832
I0518 11:48:13.873616  1124 net.cpp:42] Initializing net from parameters: 
name: "ONet"
input: "data"
input_dim: 1
input_dim: 3
input_dim: 48
input_dim: 48
state {
  phase: TEST
}
layer {
  name: "conv1"
  type: "Convolution"
  bottom: "data"
  top: "conv1"
  param {
    lr_mult: 1
    decay_mult: 1
  }
  param {
    lr_mult: 2
    decay_mult: 1
  }
  convolution_param {
    num_output: 32
    kernel_size: 3
    stride: 1
    weight_filler {
      type: "xavier"
    }
    bias_filler {
      type: "constant"
      value: 0
    }
  }
}
layer {
  name: "prelu1"
  type: "PReLU"
  bottom: "conv1"
  top: "conv1"
}
layer {
  name: "pool1"
  type: "Pooling"
  bottom: "conv1"
  top: "pool1"
  pooling_param {
    pool: MAX
    kernel_size: 3
    stride: 2
  }
}
layer {
  name: "conv2"
  type: "Convolution"
  bottom: "pool1"
  top: "conv2"
  param {
    lr_mult: 1
    decay_mult: 1
  }
  param {
    lr_mult: 2
    decay_mult: 1
  }
  convolution_param {
    num_output: 64
    kernel_size: 3
    stride: 1
    weight_filler {
      type: "xavier"
    }
    bias_filler {
      type: "constant"
      value: 0
    }
  }
}
layer {
  name: "prelu2"
  type: "PReLU"
  bottom: "conv2"
  top: "conv2"
}
layer {
  name: "pool2"
  type: "Pooling"
  bottom: "conv2"
  top: "pool2"
  pooling_param {
    pool: MAX
    kernel_size: 3
    stride: 2
  }
}
layer {
  name: "conv3"
  type: "Convolution"
  bottom: "pool2"
  top: "conv3"
  param {
    lr_mult: 1
    decay_mult: 1
  }
  param {
    lr_mult: 2
    decay_mult: 1
  }
  convolution_param {
    num_output: 64
    kernel_size: 3
    weight_filler {
      type: "xavier"
    }
    bias_filler {
      type: "constant"
      value: 0
    }
  }
}
layer {
  name: "prelu3"
  type: "PReLU"
  bottom: "conv3"
  top: "conv3"
}
layer {
  name: "pool3"
  type: "Pooling"
  bottom: "conv3"
  top: "pool3"
  pooling_param {
    pool: MAX
    kernel_size: 2
    stride: 2
  }
}
layer {
  name: "conv4"
  type: "Convolution"
  bottom: "pool3"
  top: "conv4"
  param {
    lr_mult: 1
    decay_mult: 1
  }
  param {
    lr_mult: 2
    decay_mult: 1
  }
  convolution_param {
    num_output: 128
    kernel_size: 2
    weight_filler {
      type: "xavier"
    }
    bias_filler {
      type: "constant"
      value: 0
    }
  }
}
layer {
  name: "prelu4"
  type: "PReLU"
  bottom: "conv4"
  top: "conv4"
}
layer {
  name: "conv5"
  type: "InnerProduct"
  bottom: "conv4"
  top: "conv5"
  param {
    lr_mult: 1
    decay_mult: 1
  }
  param {
    lr_mult: 2
    decay_mult: 1
  }
  inner_product_param {
    num_output: 256
    weight_filler {
      type: "xavier"
    }
    bias_filler {
      type: "constant"
      value: 0
    }
  }
}
layer {
  name: "drop5"
  type: "Dropout"
  bottom: "conv5"
  top: "conv5"
  dropout_param {
    dropout_ratio: 0.25
  }
}
layer {
  name: "prelu5"
  type: "PReLU"
  bottom: "conv5"
  top: "conv5"
}
layer {
  name: "conv6-1"
  type: "InnerProduct"
  bottom: "conv5"
  top: "conv6-1"
  param {
    lr_mult: 1
    decay_mult: 1
  }
  param {
    lr_mult: 2
    decay_mult: 1
  }
  inner_product_param {
    num_output: 2
    weight_filler {
      type: "xavier"
    }
    bias_filler {
      type: "constant"
      value: 0
    }
  }
}
layer {
  name: "conv6-2"
  type: "InnerProduct"
  bottom: "conv5"
  top: "conv6-2"
  param {
    lr_mult: 1
    decay_mult: 1
  }
  param {
    lr_mult: 2
    decay_mult: 1
  }
  inner_product_param {
    num_output: 4
    weight_filler {
      type: "xavier"
    }
    bias_filler {
      type: "constant"
      value: 0
    }
  }
}
layer {
  name: "conv6-3"
  type: "InnerProduct"
  bottom: "conv5"
  top: "conv6-3"
  param {
    lr_mult: 1
    decay_mult: 1
  }
  param {
    lr_mult: 2
    decay_mult: 1
  }
  inner_product_param {
    num_output: 10
    weight_filler {
      type: "xavier"
    }
    bias_filler {
      type: "constant"
      value: 0
    }
  }
}
layer {
  name: "prob1"
  type: "Softmax"
  bottom: "conv6-1"
  top: "prob1"
}
I0518 11:48:13.873616  1124 net.cpp:382] Input 0 -> data
I0518 11:48:13.873616  1124 layer_factory.hpp:74] Creating layer conv1
I0518 11:48:13.873616  1124 net.cpp:90] Creating Layer conv1
I0518 11:48:13.873616  1124 net.cpp:422] conv1 <- data
I0518 11:48:13.873616  1124 net.cpp:380] conv1 -> conv1
I0518 11:48:13.873616  1124 net.cpp:120] Setting up conv1
I0518 11:48:13.873616  1124 net.cpp:127] Top shape: 1 32 46 46 (67712)
I0518 11:48:13.873616  1124 layer_factory.hpp:74] Creating layer prelu1
I0518 11:48:13.873616  1124 net.cpp:90] Creating Layer prelu1
I0518 11:48:13.873616  1124 net.cpp:422] prelu1 <- conv1
I0518 11:48:13.873616  1124 net.cpp:369] prelu1 -> conv1 (in-place)
I0518 11:48:13.873616  1124 net.cpp:120] Setting up prelu1
I0518 11:48:13.873616  1124 net.cpp:127] Top shape: 1 32 46 46 (67712)
I0518 11:48:13.873616  1124 layer_factory.hpp:74] Creating layer pool1
I0518 11:48:13.873616  1124 net.cpp:90] Creating Layer pool1
I0518 11:48:13.873616  1124 net.cpp:422] pool1 <- conv1
I0518 11:48:13.873616  1124 net.cpp:380] pool1 -> pool1
I0518 11:48:13.873616  1124 net.cpp:120] Setting up pool1
I0518 11:48:13.873616  1124 net.cpp:127] Top shape: 1 32 23 23 (16928)
I0518 11:48:13.873616  1124 layer_factory.hpp:74] Creating layer conv2
I0518 11:48:13.873616  1124 net.cpp:90] Creating Layer conv2
I0518 11:48:13.873616  1124 net.cpp:422] conv2 <- pool1
I0518 11:48:13.873616  1124 net.cpp:380] conv2 -> conv2
I0518 11:48:13.873616  1124 net.cpp:120] Setting up conv2
I0518 11:48:13.889216  1124 net.cpp:127] Top shape: 1 64 21 21 (28224)
I0518 11:48:13.889216  1124 layer_factory.hpp:74] Creating layer prelu2
I0518 11:48:13.889216  1124 net.cpp:90] Creating Layer prelu2
I0518 11:48:13.889216  1124 net.cpp:422] prelu2 <- conv2
I0518 11:48:13.889216  1124 net.cpp:369] prelu2 -> conv2 (in-place)
I0518 11:48:13.889216  1124 net.cpp:120] Setting up prelu2
I0518 11:48:13.889216  1124 net.cpp:127] Top shape: 1 64 21 21 (28224)
I0518 11:48:13.889216  1124 layer_factory.hpp:74] Creating layer pool2
I0518 11:48:13.889216  1124 net.cpp:90] Creating Layer pool2
I0518 11:48:13.889216  1124 net.cpp:422] pool2 <- conv2
I0518 11:48:13.889216  1124 net.cpp:380] pool2 -> pool2
I0518 11:48:13.889216  1124 net.cpp:120] Setting up pool2
I0518 11:48:13.889216  1124 net.cpp:127] Top shape: 1 64 10 10 (6400)
I0518 11:48:13.889216  1124 layer_factory.hpp:74] Creating layer conv3
I0518 11:48:13.889216  1124 net.cpp:90] Creating Layer conv3
I0518 11:48:13.889216  1124 net.cpp:422] conv3 <- pool2
I0518 11:48:13.889216  1124 net.cpp:380] conv3 -> conv3
I0518 11:48:13.889216  1124 net.cpp:120] Setting up conv3
I0518 11:48:13.889216  1124 net.cpp:127] Top shape: 1 64 8 8 (4096)
I0518 11:48:13.889216  1124 layer_factory.hpp:74] Creating layer prelu3
I0518 11:48:13.889216  1124 net.cpp:90] Creating Layer prelu3
I0518 11:48:13.889216  1124 net.cpp:422] prelu3 <- conv3
I0518 11:48:13.889216  1124 net.cpp:369] prelu3 -> conv3 (in-place)
I0518 11:48:13.889216  1124 net.cpp:120] Setting up prelu3
I0518 11:48:13.889216  1124 net.cpp:127] Top shape: 1 64 8 8 (4096)
I0518 11:48:13.889216  1124 layer_factory.hpp:74] Creating layer pool3
I0518 11:48:13.889216  1124 net.cpp:90] Creating Layer pool3
I0518 11:48:13.889216  1124 net.cpp:422] pool3 <- conv3
I0518 11:48:13.889216  1124 net.cpp:380] pool3 -> pool3
I0518 11:48:13.889216  1124 net.cpp:120] Setting up pool3
I0518 11:48:13.889216  1124 net.cpp:127] Top shape: 1 64 4 4 (1024)
I0518 11:48:13.889216  1124 layer_factory.hpp:74] Creating layer conv4
I0518 11:48:13.889216  1124 net.cpp:90] Creating Layer conv4
I0518 11:48:13.889216  1124 net.cpp:422] conv4 <- pool3
I0518 11:48:13.889216  1124 net.cpp:380] conv4 -> conv4
I0518 11:48:13.889216  1124 net.cpp:120] Setting up conv4
I0518 11:48:13.889216  1124 net.cpp:127] Top shape: 1 128 3 3 (1152)
I0518 11:48:13.889216  1124 layer_factory.hpp:74] Creating layer prelu4
I0518 11:48:13.889216  1124 net.cpp:90] Creating Layer prelu4
I0518 11:48:13.889216  1124 net.cpp:422] prelu4 <- conv4
I0518 11:48:13.889216  1124 net.cpp:369] prelu4 -> conv4 (in-place)
I0518 11:48:13.889216  1124 net.cpp:120] Setting up prelu4
I0518 11:48:13.889216  1124 net.cpp:127] Top shape: 1 128 3 3 (1152)
I0518 11:48:13.889216  1124 layer_factory.hpp:74] Creating layer conv5
I0518 11:48:13.889216  1124 net.cpp:90] Creating Layer conv5
I0518 11:48:13.889216  1124 net.cpp:422] conv5 <- conv4
I0518 11:48:13.889216  1124 net.cpp:380] conv5 -> conv5
I0518 11:48:13.889216  1124 net.cpp:120] Setting up conv5
I0518 11:48:13.889216  1124 net.cpp:127] Top shape: 1 256 (256)
I0518 11:48:13.889216  1124 layer_factory.hpp:74] Creating layer drop5
I0518 11:48:13.889216  1124 net.cpp:90] Creating Layer drop5
I0518 11:48:13.889216  1124 net.cpp:422] drop5 <- conv5
I0518 11:48:13.889216  1124 net.cpp:369] drop5 -> conv5 (in-place)
I0518 11:48:13.889216  1124 net.cpp:120] Setting up drop5
I0518 11:48:13.889216  1124 net.cpp:127] Top shape: 1 256 (256)
I0518 11:48:13.889216  1124 layer_factory.hpp:74] Creating layer prelu5
I0518 11:48:13.889216  1124 net.cpp:90] Creating Layer prelu5
I0518 11:48:13.889216  1124 net.cpp:422] prelu5 <- conv5
I0518 11:48:13.889216  1124 net.cpp:369] prelu5 -> conv5 (in-place)
I0518 11:48:13.889216  1124 net.cpp:120] Setting up prelu5
I0518 11:48:13.889216  1124 net.cpp:127] Top shape: 1 256 (256)
I0518 11:48:13.889216  1124 layer_factory.hpp:74] Creating layer conv5_prelu5_0_split
I0518 11:48:13.889216  1124 net.cpp:90] Creating Layer conv5_prelu5_0_split
I0518 11:48:13.889216  1124 net.cpp:422] conv5_prelu5_0_split <- conv5
I0518 11:48:13.889216  1124 net.cpp:380] conv5_prelu5_0_split -> conv5_prelu5_0_split_0
I0518 11:48:13.889216  1124 net.cpp:380] conv5_prelu5_0_split -> conv5_prelu5_0_split_1
I0518 11:48:13.889216  1124 net.cpp:380] conv5_prelu5_0_split -> conv5_prelu5_0_split_2
I0518 11:48:13.889216  1124 net.cpp:120] Setting up conv5_prelu5_0_split
I0518 11:48:13.889216  1124 net.cpp:127] Top shape: 1 256 (256)
I0518 11:48:13.889216  1124 net.cpp:127] Top shape: 1 256 (256)
I0518 11:48:13.889216  1124 net.cpp:127] Top shape: 1 256 (256)
I0518 11:48:13.889216  1124 layer_factory.hpp:74] Creating layer conv6-1
I0518 11:48:13.889216  1124 net.cpp:90] Creating Layer conv6-1
I0518 11:48:13.889216  1124 net.cpp:422] conv6-1 <- conv5_prelu5_0_split_0
I0518 11:48:13.889216  1124 net.cpp:380] conv6-1 -> conv6-1
I0518 11:48:13.889216  1124 net.cpp:120] Setting up conv6-1
I0518 11:48:13.889216  1124 net.cpp:127] Top sh*** Check failure stack trace: ***
